HyperSpectrumModel4Layers(
  (noise): GaussianNoise()
  (avgPool1): AvgPool1d(kernel_size=(5,), stride=(5,), padding=(0,))
  (block1): DeepBasicBlock(
    (Conv1D): Conv1d(1, 50, kernel_size=(5,), stride=(5,), padding=(1,))
    (bn): BatchNorm1d(50, eps=1e-05, momentum=0.1, affine=True, track_running_stats=True)
    (relu): ReLU(inplace)
  )
  (block2_1): DeepBasicBlock(
    (Conv1D): Conv1d(50, 100, kernel_size=(3,), stride=(3,))
    (bn): BatchNorm1d(100, eps=1e-05, momentum=0.1, affine=True, track_running_stats=True)
    (relu): ReLU(inplace)
  )
  (block2_2): DeepBasicBlock(
    (Conv1D): Conv1d(100, 200, kernel_size=(3,), stride=(3,))
    (bn): BatchNorm1d(200, eps=1e-05, momentum=0.1, affine=True, track_running_stats=True)
    (relu): ReLU(inplace)
  )
  (block3_1): DeepBasicBlock(
    (Conv1D): Conv1d(200, 400, kernel_size=(3,), stride=(3,))
    (bn): BatchNorm1d(400, eps=1e-05, momentum=0.1, affine=True, track_running_stats=True)
    (relu): ReLU(inplace)
  )
  (fc1): Linear(in_features=1200, out_features=800, bias=True)
  (relu1): ReLU(inplace)
  (dropout1): Dropout(p=0)
  (fc2): Linear(in_features=800, out_features=200, bias=True)
  (relu2): ReLU(inplace)
  (dropout2): Dropout(p=0)
  (fc3): Linear(in_features=200, out_features=1, bias=True)
)
lr: 0.0005, dropout: 0, weight_decay:0
-------------------------------------------------
Here are the training data set results:
trait: LMA_O, R square: 0.9868444800376892
trait: Narea_O, R square: 0.9881036877632141
trait: SPAD_O, R square: 0.9751554131507874
trait: Nmass_O, R square: 0.9778130054473877
trait: Pmass_O, R square: 0.9846470355987549
trait: Vcmax, R square: 0.9145547747612
…
